data.pth (torch, 5279 bytes, 6 tensors)

l1.weight f4 [8, 54]
00000000: e4fd 983e f45d 3a3f 0cd2 e5be 6667 cfbb
00000010: cfe7 b6be 34af 763f bbd5 e0be c3f0 cdbe
00000020: 24e2 60be 5147 fcbe e5da 00be 50f7 1c3f
00000030: 8cb1 14bd f75e 103f e929 323f 56dc 113f
00000040: 8042 57be bdf7 8e3f 1231 90be 20fa c5be
00000050: 62d7 9b3e b6bd abbe 2c80 aebe 576a cc3e
00000060: 7866 8d3e 51f0 c9bd a0e2 82be 2293 5d3f
00000070: b6f1 f8bd 6212 3f3f cbed 5d3f 87b9 1c3f
00000080: 5af7 6a3e e82c c6be 1df2 2a3f e1ae b73e
00000090: 2245 cebd 361f 9fbe 9e71 a4be d3c3 2dbe
000000a0: 5bdd 533f b5e1 d8be 3798 f13e f27f 083f
000000b0: 35b5 f23d f29c 4e3f 50e0 cd3e 22d2 9f3e
000000c0: f396 fdbd 7d0a dbbe f7fa 093f 3acc a0be
000000d0: abef 68be b712 d03b 9438 acbc fe8e d1be
000000e0: 2ca0 9bbe 6c8b 863e fe3e 393e bd2a 14bf
000000f0: 8dec a6bd be56 b2be 0bc8 bdbe e578 3dbe
00000100: c15d b43e f38b 8bbe f348 4e3e af5d 98be
00000110: 3a91 22be 798e 41be 555a e83e b048 03bf
00000120: 309d ac3e 7ed0 013f 7030 42be a887 193f
00000130: 1e74 f53e 1eb7 863e 43bb 28be 96ca d03e
00000140: 56a9 793e 0d17 19be b8c3 ef3a e589 b0be
00000150: e126 6abe 32a1 37be 2407 663d a64e f0be
00000160: 1630 69bd a50b d4bd eeab 433e d7a0 fdbe
00000170: b65a 9dbd 0afd 1fbe e8d5 a0be bbe8 a73e
00000180: 2b40 cabd 6f1b 82be a5c1 9dbe a4c2 1abe
00000190: abed fdbe 7d76 88be 1dcd 8d3e b7f5 ae3e
000001a0: ac54 bdbd 2f82 ad3e 35d7 febd 268f 9e3d
000001b0: b430 283e e49a 993c 7fec 163f 0e5e 3abe
000001c0: 9223 943e e4c3 a3be 9c62 e63e 869f ef3e
000001d0: 4891 d43e aa8f c63e 263d f7bd 3e21 49be
000001e0: 90c8 3a3f 5be5 2e3e 9ba9 eb3d acea 06be
000001f0: 5ab5 4bbe f0a4 a3be da7e a63e 2ebd a3be
00000200: b6f2 7c3e 3db2 a3be 78b2 a3be 980b 0dbf
00000210: 4cbc be3e ffde 8ebe b908 f33e 4b4a fb3d
00000220: 8fcd bb3e 4298 40be 063d 8dbe 3a58 803e
00000230: 403d 273e 2044 063f 4558 863e b4d9 30be
00000240: 7b76 e93e 2956 db3e 4c25 0c3f daad fe3e
00000250: f272 94be c3a2 c13e aa9d 88be 01ba 803e
00000260: 1940 b73e ff78 453e fc27 023f 27ae 143e
00000270: 393f 4e3e f0fa cc3e e500 7dbe 0e73 403e
00000280: 8190 ca3e f61f f13e 67c5 9abd 54ce ccbe
00000290: b4e0 9dbe 7529 c73b 4f2e be3d e6e8 103f
000002a0: 3683 543c a386 1cbe c86c 60be 9981 16be
000002b0: 7814 903d fe7b 15be 6462 9d3e e2d7 a4bd
000002c0: 5640 92bd 163c 5cbe a0b6 cd3d 5700 df3e
000002d0: aab7 b73e 52da 0a3e d944 4fbe 6627 893e
000002e0: 6905 9e3e f2a1 1c3e 576c 11be 1894 db3d
000002f0: 0f29 923e 9241 5cbe 911c 963e e6d0 8bbe
00000300: e995 0f3f aa6f d1bd 34e9 25bd 9d8e 35be
00000310: b445 4fbe 5200 01be e236 953e be07 bdbe
00000320: a607 0bbe 77d4 0bbe aa5f f43e 94db d53e
00000330: 8bbb 13be e764 adbc 02d1 9bbe b906 3cbe
00000340: dff5 f3be 2a40 4bbe 2f89 6c3e b43a cd3e
00000350: f5be 1ebe 5173 513e 5ecb ccbd d5df d53d
00000360: aabb 133f 24eb 85bc a427 67be 4ea3 96be
00000370: a444 a8bd 687a abbe 898d 343d 87a1 95be
00000380: dfbc 24be 3993 0ebe f757 cfbd fd9d 04be
00000390: 0e69 8b3e 4a7b f4bd af3e 5fbd a0ef f7bd
000003a0: bab1 f7bc 937c abbe e00d 1c3f 9118 1fbd
000003b0: 6eda b63e ff16 edbd 290e b5bd caed fbbd
000003c0: 5bdf c0bd d0c1 5bbe a7b6 413f e0e4 f2be
000003d0: 6e69 b83e afc9 00bf 45de 99be 906b 73bd
000003e0: 93f4 f93e 55b0 d2be adea 97bc 2749 19be
000003f0: 64cc 153f 1a91 7ebe f0e6 f9bd e418 95bd
0.29881203 0.7279961 -0.44886816 -0.0063294647 -0.3572373 0.9636109 -0.43913063 -0.4022275
-0.21961266 -0.4927316 -0.12583502 0.6131487 -0.036302134 0.56394905 0.695952 0.5697683
-0.21021461 1.1169354 -0.28162438 -0.38667393 0.30437762 -0.33543175 -0.34082162 0.3992488
0.2761724 -0.0986029 -0.25563526 0.8655263 -0.12155478 0.74637425 0.8669097 0.6122059
0.2294592 -0.38706136 0.66775686 0.3587561 -0.1007178 -0.310785 -0.32117933 -0.16969232
0.82759637 -0.423597 0.47186443 0.5332023 0.11850969 0.8070823 0.402102 0.31215006
-0.12382307 -0.4278144 0.53898567 -0.31405813 -0.22747676 0.0063498872 -0.021023072 -0.40929407
-0.3039564 0.26278245 0.18090436 -0.57877713 -0.08150587 -0.34831804 -0.37066683 -0.18503149
0.3522778 -0.2725521 0.20145015 -0.29758975 -0.15875712 -0.18902005 0.45381418 -0.5128279
0.33713675 0.5070876 -0.1896379 0.5997262 0.47940153 0.26311582 -0.16477685 0.4077956
0.24381003 -0.149502 0.0018292582 -0.34480205 -0.22866394 -0.17932585 0.056159154 -0.46935004
-0.056930624 -0.103537835 0.19108555 -0.49536774 -0.07683317 -0.1562387 -0.31413198 0.32794747
-0.0987552 -0.25411555 -0.30811802 -0.15113312 -0.4959539 -0.266529 0.27695552 0.3417184
-0.092446655 0.33888385 -0.12443391 0.07742147 0.16424829 0.018750615 0.58954614 -0.18199942
0.28933388 -0.3198539 0.44997108 0.46801394 0.4151709 0.38781482 -0.1207221 -0.19641587
0.72962284 0.1707968 0.11506959 -0.13175458 -0.19893399 -0.31961775 0.32518655 -0.3198027
0.24701962 -0.31971923 -0.31972098 -0.55095816 0.37253034 -0.27904508 0.47467592 0.1227003
0.36680266 -0.18808082 -0.2758562 0.25067312 0.16331959 0.524477 0.2623922 -0.17270547
0.45598206 0.42839172 0.5474441 0.49742013 -0.28993946 0.3781949 -0.26682788 0.2514191
0.3579109 0.19284438 0.5084226 0.14519559 0.20141305 0.400352 -0.24707372 0.1879389
0.39563373 0.47094697 -0.07557183 -0.40001166 -0.30835497 0.00607794 0.092861764 0.56605375
0.012970736 -0.15285735 -0.21916497 -0.14697875 0.07035154 -0.1459808 0.3073913 -0.08048989
-0.07141177 -0.21507296 0.100445986 0.43554947 0.35882312 0.13559845 -0.20241107 0.2678787
0.30863503 0.15296152 -0.14201485 0.10721606 0.2854695 -0.21509388 0.2931867 -0.27307814
0.5608812 -0.10226376 -0.040505603 -0.17730184 -0.20241433 -0.12597778 0.29143435 -0.3691997
-0.13577136 -0.13655268 0.47729236 0.41769087 -0.1442701 -0.021166278 -0.30432898 -0.1836194
-0.47648522 -0.19848695 0.23099206 0.4008385 -0.15502532 0.20454146 -0.09999727 0.10443083
0.5770823 -0.016347475 -0.22573715 -0.29421467 -0.08216217 -0.33491826 0.04408029 -0.29224798
-0.16087674 -0.13923348 -0.101242 -0.12950893 0.27228588 -0.11937578 -0.05450314 -0.12106252
-0.030236114 -0.3349348 0.6095867 -0.038841788 0.35713524 -0.11576652 -0.088405915 -0.12301214
-0.09417602 -0.21460652 0.7566933 -0.47440243 0.36017936 -0.50307745 -0.3005239 -0.05942875
0.48819408 -0.41150156 -0.01854452 -0.14969312 0.58515 -0.2486004 -0.12202251 -0.07280138

l1.bias f4 [8]
00000000: 089b 613f ffe3 1e3f 8db3 a33e bdf6 f33e
00000010: 197c ab3e 50e4 e53e 5e1e 443f cd4f 2a3f
0.88127184 0.62066644 0.31972924 0.47649184 0.33493116 0.4490075 0.76608837 0.66528016

l2.weight f4 [8, 8]
00000000: 592d 4a3e 904a 3a3f 9279 12bf f807 4abf
00000010: 79da 383f 1222 b43f f776 fd3d b4e0 943f
00000020: a279 8bbf 4b9e a63f 2b72 803f 0e8a 143f
00000030: 4aea 8e3f fdba 03bf 9c38 983f eda2 1e3f
00000040: d8c3 153f 971f 3b3f d9fd 77bf 5e65 583f
00000050: 4507 42bf dfa6 ddbe 2e8e c53e 31dd 6e3f
00000060: 1ab2 923e 3ce1 68bf dc72 803f 9dee 86bf
00000070: a281 fbbd b55f 763f 8104 8e3e 137a 243f
00000080: b9fb 3fbe a224 313d 8d7a 2d3f 2025 fabe
00000090: 3f95 69bf 8dab 483f b63e 703f 5dac 2abf
000000a0: e49f 863f 06f0 71bf 999a 9dbe 27b8 c03e
000000b0: cc3c 61bf cf84 62bf 570b 563e 1f5e 353f
000000c0: 5a3c 543f 9873 8abf 8e79 183f a3f3 e6be
000000d0: 9839 993e 698c 903f baed 283d e11d 7fbe
000000e0: 74e4 9d3e c07c 493f 98cd 02bf 3d89 aa3e
000000f0: 586a 85bf fab8 463f 2973 603f 64fa 94be
0.19743861 0.72770023 -0.5721675 -0.7891841 0.7220836 1.4072897 0.12376206 1.1631074
-1.0896494 1.3017057 1.0034841 0.58023155 1.1165249 -0.51457196 1.1892276 0.61967355
0.5850196 0.7309508 -0.96871716 0.84529674 -0.7579234 -0.43291375 0.38585037 0.9330626
0.28651506 -0.9096868 1.0035052 -1.0541569 -0.12280585 0.9623979 0.2773781 0.6424877
-0.18748368 0.043247826 0.6776512 -0.4885645 -0.91243356 0.78386766 0.9384569 -0.66669255
1.0517545 -0.9450687 -0.3078201 0.37640497 -0.87983394 -0.884839 0.20902763 0.7084674
0.8290459 -1.0816526 0.5956048 -0.45107755 0.29926753 1.129285 0.04124234 -0.24913742
0.30838358 0.7870598 -0.5109496 0.3330783 -1.0423079 0.77626 0.8767572 -0.29097283

l2.bias f4 [8]
00000000: 9d3a fdbb f3aa 333f b07e 073f 60dc 563e
00000010: dc18 a93e fbef b83e 4dab f33e b6c8 da3e
-0.0077279345 0.7018272 0.52927685 0.20982504 0.3302678 0.3612059 0.4759163 0.42731255

l3.weight f4 [7, 8]
00000000: d198 d43d bf92 65bf ceb8 a03e 54c3 773e
00000010: 1344 20bf ff2c 213f f15f 8abe 946a bbbf
00000020: f670 fabc 6d1e 6cbf 102d 1bbf 70b6 8f3e
00000030: ab40 043f 84ba ddbe f86f da3e df88 d33e
00000040: ade3 bbbf d4fa 20bf 5b56 1a3f b54b 96bf
00000050: 09ff ebbe 2e97 2d3f fe74 d73e b613 533f
00000060: 4e5c 1c3f 0d0c dcbd 0aaa c13e fcc2 4dbf
00000070: 3bb5 8b3d bdac 61bf 6ed8 0dbf c374 593f
00000080: c3a8 18bf 26e9 313f b124 f5be cb02 a4bf
00000090: 742d 823e 6e24 10bf 809f 42bf 73d7 87bf
000000a0: 6bd7 a9bf 94ff 433e fdf5 33bf b32d e23e
000000b0: e6de 333f c6ef a3bf 3e19 483e fd2d adbc
000000c0: bfa1 343f 3fa9 8dbe b6a0 1bbf 7cdc ec3e
000000d0: e58d 2dbf 4ece 86bf 57d0 573f 6060 afbf
0.1038071 -0.8967704 0.31390995 0.24195606 -0.62603873 0.62959284 -0.27026322 -1.46419
-0.030571442 -0.92233926 -0.60615635 0.28068876 0.51661175 -0.43306363 0.4266355 0.41315362
-1.4678856 -0.62882733 0.6028802 -1.1741854 -0.46093014 0.67808807 0.42081445 0.8245195
0.61078346 -0.10744486 0.37825042 -0.8037565 0.06821676 -0.881542 -0.5540837 0.8494379
-0.5963251 0.6949638 -0.47879556 -1.2813352 0.25425303 -0.5630559 -0.7602463 -1.0612625
-1.3268865 0.19140464 -0.70297223 0.4417549 0.7026199 -1.2807548 0.19540879 -0.021140093
0.70559305 -0.27668187 -0.607921 0.46261966 -0.6779464 -1.0531709 0.84302276 -1.3701286

l3.bias f4 [7]
00000000: 774a 18bd f226 0dbf 51e3 d43e fec2 8ebd
00000010: c6fc 7a3e 2652 92be 2f24 40bd
-0.03718039 -0.5513755 0.4157968 -0.069707856 0.24510488 -0.285783 -0.046909507
